data.pth (torch, 5546 bytes, 6 tensors)

l1.weight f4 [8, 54]
000000 d9 e7 81 3e 3b b8 36 3f bc ae 4d 3e fd e1 fd 3e
       0.25372198 0.71374863 0.20086187 0.49586478
000010 bf c0 44 3d 8c 52 22 3e f3 db 8c be 06 5a 18 be
       0.04803538 0.15851802 -0.27511558 -0.14878091
000020 23 f4 87 be 31 22 5c bd ff 0e c6 bc a1 f4 2a 3f
       -0.2655345 -0.053743545 -0.024177073 0.66779524
000030 3f 39 87 bd a8 5e 0f 3f 6e 7b 7f 3e 66 12 df be
       -0.06602716 0.5600381 0.24949428 -0.43568724
000040 0c 35 ba 3c 28 23 33 3e 5e 88 ad bd c6 31 be 3e
       0.022730373 0.1749388 -0.084732756 0.3714735
000050 1d df c1 bd 8c 12 91 be 1e b1 bb be a8 d4 57 bc
       -0.094663836 -0.28334463 -0.36658567 -0.01317326
000060 80 2c e4 bb 6d 91 d4 3e 78 83 2f bd 17 1d a1 be
       -0.0069633126 0.415172 -0.042849988 -0.31467506
000070 2c 3c 9b be e8 88 6c 3e 93 24 fd 3d a1 14 27 3f
       -0.30319345 0.230991 0.123604916 0.6526585
000080 f4 ea bd 3d c8 bb a5 bd 8c 4e db bd 35 c6 ab be
       0.092733294 -0.08092457 -0.10708341 -0.33549657
000090 ce ca ec be ba a6 93 3e 68 ac d2 bd 42 ee 1f bf
       -0.46248478 0.2883814 -0.1028679 -0.6247293
0000a0 19 c5 b5 bd fc dc d3 be 5c 58 a3 3d 5d eb 1d 3f
       -0.08875484 -0.41379535 0.079758376 0.6168726
0000b0 0d 94 b9 be e7 9e 24 3f 5e e4 d1 bd 5e da 97 be
       -0.36245766 0.64304966 -0.10248636 -0.29658788
0000c0 c2 66 12 be 5a fa 40 be dd 0b bb 3d d0 20 83 3d
       -0.14297011 -0.18845502 0.09133122 0.06402743
0000d0 19 ba 96 3e 99 ed ca 3d e8 4e 7f 3e 7f ec 22 3f
       0.29438856 0.099085994 0.24932444 0.63642114
0000e0 87 bf ee 3e cf 13 10 3f b3 5b ba 3e 13 d8 db 3e
       0.466305 0.56280226 0.36398086 0.4293829
0000f0 7a af e7 3c 0c 16 25 3d f5 ad cb be 45 c5 0e bf
       0.028281916 0.04030423 -0.39781156 -0.5576976
000100 0f c9 29 3f 5d f6 53 be 40 df f1 be 6e 29 2a be
       0.66322416 -0.20699449 -0.4724064 -0.16617367
000110 1a 98 fb 3e 68 7a bb 3e 09 b9 96 3b 80 9b b8 3e
       0.49139482 0.36616826 0.0045996946 0.36056137
000120 6f ea f6 bd 7f 1a d2 bd 83 43 10 3f 51 d3 b4 be
       -0.120564334 -0.1025896 0.56353015 -0.35317472
000130 e9 07 bf 3e cb 88 e0 3e 8d 70 8b bd cf b1 2a 3f
       0.37310722 0.43854365 -0.06808577 0.66677564
000140 3d 35 f2 be 02 73 08 3f 96 38 c3 bd 19 2d 24 3f
       -0.47306243 0.5330049 -0.09532277 0.64131314
000150 91 a6 2f 3f 2d 08 7d bc 12 4b f1 3e cf 4e 08 be
       0.68613535 -0.015443844 0.47127587 -0.13311313
000160 52 27 2d be c0 a2 d7 3e 0b 98 9a bd 8a 92 ac 3e
       -0.16909531 0.42116356 -0.07548531 0.3370555
000170 6c d7 bd 3a 4b 5d ab be 9a 69 c9 be 87 67 2e 3f
       0.0014483756 -0.33469614 -0.3933838 0.6812672
000180 07 65 98 3e ad a2 ba be 5f 0e 3b 3d 36 0d 10 3f
       0.29764578 -0.36452237 0.045668002 0.5627016
000190 8a 0c 37 3e bb ab 82 3d 90 d0 43 bd 62 d7 ca 3e
       0.17875877 0.06380411 -0.047806323 0.3961745
0001a0 57 9b 16 3f ee 3a 9b be bc 09 8e bc 5f 78 56 3e
       0.5883078 -0.30318397 -0.017338626 0.20944355
0001b0 ef 49 24 3f 5d 9f b1 3d c8 13 d9 bd a2 6b 2f 3e
       0.64175314 0.08672974 -0.10599476 0.17130902
0001c0 d8 da 13 be b7 36 28 be 22 2d 29 bd 5d e4 83 be
       -0.14438951 -0.16427122 -0.041302808 -0.25760165
0001d0 75 bc a8 3e 19 4f 81 3f d3 e0 9d be 79 50 08 3f
       0.3295628 1.0102264 -0.3083559 0.5324779
0001e0 6d 3a 57 3f f6 18 fb 3e 29 7a 40 be b3 a4 ba 3e
       0.84073526 0.4904248 -0.187966 0.3645378
0001f0 5d 04 7f 3e 5f dd 01 3e 71 db ff 3d b7 93 a6 3e
       0.24904008 0.12682103 0.12493027 0.32534572
000200 8f 6e 27 bf ce ed d4 3e 2e 32 87 be 5b 40 50 be
       -0.65403074 0.4158768 -0.26405472 -0.2033705
000210 a4 23 10 3f 06 82 cb bc 40 f6 57 3f ed da e0 be
       0.56304383 -0.024842273 0.8436012 -0.43917027
000220 aa fb 0d 3f 4c 11 cf be 11 95 a8 be be 9c 15 3f
       0.55462134 -0.40442884 -0.3292623 0.58442295
000230 95 3f 51 be 98 9a f1 3e 0e dd 24 3f 92 50 aa 3e
       -0.20434411 0.47188258 0.643998 0.33264595
000240 b9 4f de 3e 0c 50 9d 3d 65 de 6e bd 19 c8 f3 be
       0.434202 0.07681283 -0.05831756 -0.476136
000250 3b 3d 0a 3f 98 7a ff be b6 07 55 3e 5b 48 60 3f
       0.5399968 -0.4989822 0.20803723 0.87610406
000260 8b d5 7c 3e ec e9 04 be 12 6d 17 be 84 7d 01 3f
       0.24690835 -0.12979859 -0.14787701 0.50582147
000270 45 f0 3e 3e 15 d4 77 3e 4d 7b 8a be 29 f1 08 3f
       0.18646343 0.24201997 -0.27047196 0.5349298
000280 96 16 d0 3e 7b a8 f0 3c 96 f4 ed 3e a6 f5 80 3e
       0.40642232 0.029377213 0.46475667 0.25187415
000290 c9 24 81 be 95 05 92 3e 63 7c 30 be b7 f4 87 be
       -0.25223377 0.28519884 -0.1723495 -0.2655389
0002a0 50 1e 0f 3f 64 f0 15 3f cd 38 f8 bd b3 5a 1e 3f
       0.5590563 0.5856993 -0.12120209 0.61857146
0002b0 e1 52 37 3e f5 6d 34 3d 13 f6 99 3e c4 9d 1f 3d
       0.1790271 0.044050176 0.30070552 0.038968816
0002c0 64 61 9d bd 5e 63 29 3f a7 70 02 3f 29 a2 44 be
       -0.076845914 0.6616725 0.50953144 -0.19202484
0002d0 c4 ee e0 be d2 e7 9e be 0b 21 72 be c6 7b d7 39
       -0.43932164 -0.3103624 -0.23645417 0.00041100214
0002e0 6a 0c b9 be cb ec 7a 3c ec bd 38 3e e3 85 b7 3e
       -0.36142284 0.015315245 0.180412 0.35844335
0002f0 23 05 c3 3e 8a 7f 05 3f 09 a3 91 3e 08 59 10 bf
       0.38089857 0.52147734 0.28444698 -0.5638585
000300 51 ec 16 bf ec 22 28 3e ef 3b 40 3d eb 95 a1 3e
       -0.5895434 0.16419572 0.046932157 0.3155969
000310 4e f7 cf 3e 90 d2 08 3f 22 1f 3c be 95 62 f8 3e
       0.40618366 0.5344629 -0.18371251 0.48512712
000320 fe 17 e4 be a9 55 51 3f 6c 5a 6d bd e9 9e 6e be
       -0.44549555 0.8177133 -0.05794756 -0.23302807
000330 3f 01 a7 3e 74 6d 4d be fd 25 b5 be df 1c 04 3e
       0.32618138 -0.20061284 -0.35380545 0.12901638
000340 28 df 38 3f ca 7f 22 3f f7 d5 20 3f 62 03 11 3f
       0.7221551 0.6347624 0.62826484 0.56645787
000350 48 cc 9d be 6c 68 14 3e 59 b5 06 be 88 00 60 3f
       -0.30819917 0.14492959 -0.13155116 0.8750081
000360 4a 52 93 3e e0 50 da be f9 57 b6 3e 7a 8c 73 be
       0.2877372 -0.42639828 0.35613993 -0.23784056
000370 9e 2c c9 3e 4f 3e 10 3f 31 72 af 3e 57 6d 50 3e
       0.39291853 0.56345075 0.3426681 0.2035421
000380 f9 a2 c5 3e 64 e3 f0 bd 74 13 55 3e 74 b9 15 bf
       0.386009 -0.11762121 0.20808202 -0.58486104
000390 30 bb 04 3d 61 9e a4 bd 52 f3 02 3f c4 ed fd 3e
       0.03240508 -0.08038021 0.5115253 0.49595463
0003a0 7b 92 81 3e 39 95 17 bf 60 d2 6c be c0 b0 ed be
       0.25307068 -0.5921207 -0.23127127 -0.46423912
0003b0 46 df c7 bc 27 1d 10 3f 20 82 dc bb af d1 d8 be
       -0.024398457 0.5629448 -0.0067293793 -0.42347476
0003c0 34 1f b2 3c a1 86 40 be 20 c5 52 3d 62 4d 39 be
       0.021743394 -0.18801357 0.051457524 -0.18095925
0003d0 41 e3 d9 bd 8d 73 45 3f 21 ca 52 3f 4b 2d f9 bd
       -0.10639048 0.7712944 0.82339674 -0.12166842
0003e0 71 5c a3 be 69 bc e8 3b 6f ca e0 bd cb 81 c0 3e
       -0.31906465 0.0071025384 -0.10976111 0.37599024
0003f0 b5 a8 06 3f 14 09 65 3e e8 d5 e4 bd 4c b8 36 be
       0.52601177 0.22366744 -0.11173612 -0.17843741

l1.bias f4 [8]
000000 c4 92 06 3f c3 e1 87 3f a4 bc e4 3e f8 21 4a 3f
       0.52567697 1.0615772 0.4467517 0.7895808
000010 e4 07 da 3e 56 55 f4 3e 0c 59 0b 3f 2d 65 cf 3e
       0.42584145 0.47721356 0.5443275 0.40506878

l2.weight f4 [8, 8]
000000 2d a7 e1 be 64 f6 c1 3f 42 13 6b bf ba b3 72 3f
       -0.44072857 1.5153317 -0.9182626 0.9480549
000010 64 c2 1f 3f fa b8 a8 3e b4 e7 94 be ec 0d cd 3e
       0.6240599 0.32953626 -0.29083025 0.40049684
000020 cd 15 f8 be f3 b5 8b 3e 89 8c 1a 3d b3 75 88 3f
       -0.48454133 0.27287254 0.03773168 1.0660919
000030 d3 0d cc bd 05 98 3a 3f ee f8 fb be c5 93 92 3f
       -0.09963574 0.72888213 -0.49213356 1.1451346
000040 66 40 49 bf 21 83 45 bf c1 5b 87 3f 2f f9 37 3f
       -0.7861389 -0.7715321 1.0574876 0.718646
000050 63 3b c2 3e dd 0e 21 3f c9 89 5c 3f 83 61 47 3f
       0.37935933 0.62913305 0.86147743 0.77883166
000060 0b cb 22 3f f9 4d 9b 3f e4 14 57 3e 80 7a 79 bf
       0.6359107 1.213317 0.21004063 -0.97452545
000070 65 98 7d 3e 0b 80 a0 be 74 4e 80 3f 76 a1 25 3f
       0.24765165 -0.3134769 1.0023942 0.64699495
000080 9c 4c c6 bd ed 81 ee bd 64 ca 6e bc dc a5 03 be
       -0.09682581 -0.11645875 -0.014574621 -0.12856239
000090 1b 8f 12 3e 79 1a d5 3d 4d 6b 04 be ea 3c 3e 3d
       0.14312403 0.1040544 -0.12931557 0.04644481
0000a0 44 bd db 3d 54 63 28 be 8d 27 53 be b2 2b 5c 3e
       0.10729459 -0.1644414 -0.20620556 0.21501043
0000b0 60 d2 25 3d d6 9f 1a be 84 ad 3e be 78 f6 8c bd
       0.040483832 -0.15100035 -0.18620878 -0.06882948
0000c0 4a 6a d3 3e d4 f9 79 3e 7b 16 42 3f 3b d7 43 3e
       0.4129203 0.24411708 0.7581555 0.19125073
0000d0 28 e2 a0 3f 94 89 68 bf c0 9e ab 3f c0 05 36 be
       1.2569017 -0.9083493 1.3407822 -0.17775631
0000e0 70 e1 8b 3f 04 a7 99 3e 40 56 67 3f 2a 54 8a 3f
       1.0928173 0.30010235 0.9036598 1.0806935
0000f0 20 9c 4d bf 03 85 9f 3f cd 59 25 3d 51 3c 82 bf
       -0.8031635 1.2462467 0.040368844 -1.0174657

l2.bias f4 [8]
000000 f8 5c 2f 3f 4c 38 f4 3c 07 1f 3c 3d 3d bf 2c 3f
       0.68501234 0.029812 0.045928027 0.67479306
000010 08 8e 73 bd 45 76 60 be 53 02 b2 3d 97 4b 06 3f
       -0.059461623 -0.21920116 0.086918496 0.5245909

l3.weight f4 [8, 8]
000000 80 10 82 bf f1 47 dd be 74 fb 0a 3f 0f 11 97 3e
       -1.0161285 -0.4321895 0.54289937 0.29505202
000010 8f 85 5a bd ef 8f 1b be 12 62 2d 3f e0 11 99 bf
       -0.053350028 -0.15191625 0.6772777 -1.195858
000020 09 3e 2f bf c3 b5 e0 3d e1 fe 02 3f 57 00 a9 bf
       -0.68454033 0.10972168 0.51170164 -1.3203229
000030 43 c4 f5 3b 67 8a 9d be f6 37 18 bf f2 7f e4 3e
       0.007500203 -0.30769655 -0.5946039 0.44628865
000040 de e7 0c 3f af 4e 74 be a7 25 da bf 0b 89 b9 3d
       0.550413 -0.2385814 -1.704274 0.09059342
000050 f5 b7 b5 be 68 7e ae bd 85 e7 73 bf ed 3b 55 3f
       -0.3549191 -0.08520204 -0.95275146 0.83294564
000060 2a 82 8a bf df 6d 4c bf ba e7 85 be 05 a7 aa 3d
       -1.0820973 -0.7985515 -0.26153356 0.08332638
000070 b9 d0 29 bc 6e de 66 3e 77 c5 e4 3e 04 7e 15 3f
       -0.010364705 0.22545788 0.44681904 0.5839541
000080 cd fe bc 3d a1 7d 35 3e 46 d9 3a bd 58 33 9c be
       0.09228287 0.17723705 -0.045617364 -0.30507922
000090 3e 3d a1 3e 3e 52 20 3e e2 6b b1 3e 95 a3 38 bf
       0.31492037 0.15656373 0.3465262 -0.72124606
0000a0 e5 f8 2a 3f 9c 93 33 3e 3e 2a 3d bf 7d 99 39 3f
       0.6678603 0.17536777 -0.7389258 0.7249983
0000b0 98 6c e3 bc 5d 13 8d be 6c 87 a3 bf b8 2c 88 bf
       -0.027761742 -0.27553836 -1.2775702 -1.0638647
0000c0 54 c0 04 3f f7 22 16 3f 0d 4f 4c be db cb bd bf
       0.5185597 0.586471 -0.1995203 -1.4827837
0000d0 3b 24 3e 3e b4 eb 9e bd aa da c6 bf 76 20 5b 3e
       0.18568508 -0.077598006 -1.5535481 0.21399102
0000e0 64 c0 25 3f 94 d7 9a bf d6 da 9b bf 74 4f 29 3f
       0.6474669 -1.2097039 -1.2176158 0.6613686
0000f0 f1 7e 6f 3e 68 a1 77 bd 6a 81 11 3f 8b a1 48 bf
       0.23388268 -0.060456663 0.56838095 -0.78371495

l3.bias f4 [8]
000000 0b f0 c5 bd 14 9d 84 3b c3 c0 7f 3e f2 86 04 be
       -0.09664925 0.0040470455 0.24975877 -0.12942103
000010 cf d4 4a be 6e fc 85 be 95 08 09 3c 2f ca 80 3e
       -0.19807743 -0.2616915 0.0083638625 0.25154254
